Assets/RollerBall.onnx (onnx, 75411 bytes, 8 tensors)

network_body._body_endoder.seq_layers.0.weight f4 [128, 8]
00000000: ba0c c13e 48f1 9d3d fed5 033f e2ea 193e
00000010: 8606 aabe fd9f d93d dec8 0e3f 5069 62be
00000020: 35fe c63e 131e 8ebd 2524 0e3f 2f77 f93b
00000030: 54af aabe 9ed6 a13e 9994 693d 7f0c 04bf
00000040: 38a2 ba3e 758d 933e 1e94 53bd 2ac3 623e
00000050: 0701 183f 0d10 cabe 19ab c63e 393b f03c
00000060: 3ac6 fabd c3c3 aabe 09f2 e9be c056 74bd
00000070: f006 02be d656 aa3e 68ac d7bc 0baf 093e
00000080: 2578 493d a4c9 3e3e 8b14 afbe e8f0 e7bd
00000090: 4a18 d83e dd28 b03e 8984 dfbe 7ebe b73e
000000a0: f90b 68bf 265a 873e 0c4f b6be 3224 803f
000000b0: e943 813d 66ee 0cbf ed45 333f bfb2 80be
000000c0: 404f 113d 336a 32be a221 053e 517b b33d
000000d0: ac17 4e3e 66aa 693e a480 76be 8d93 78bc
000000e0: 74f8 2d3e 5b67 d4bd 59b5 edbe b56b 213e
000000f0: 1f6f 3bbc c8ba 253e 7556 cabe a695 603d
00000100: f957 803d b036 1e3e a476 423f 98b2 a7bd
00000110: 1de4 35bf 98b8 553e cd4c 35bf f67f c1be
00000120: c5de ba3d 147e 003d 5434 6cbe 3934 0fbf
00000130: 8a5e 503d 960b f5bd 4c0b 383e 1911 8b3d
00000140: 03a6 f7bd 58bd b3be 6644 633d fe51 74be
00000150: c0ee c9bd 45d4 cb3d 7952 ad3e d72f d73e
00000160: 0317 a7be 7810 82be 5a85 033e 921f 373f
00000170: 9b29 983e 2b64 15be 14c9 083f 174d 90be
00000180: c700 d43d 868b d2be 56d7 02bf bea5 873e
00000190: 520d 0a3e 8d81 033f b01e f23e 79fe e33e
000001a0: 468f db3e 4592 3dbe 7775 4a3e 0530 c43c
000001b0: fdeb 29be 6861 7fbe 8286 e5be ec36 7f3e
000001c0: 800f bcbd 4d72 a7bd 0d86 09be c31c f1bd
000001d0: fa70 253d 9862 be3d c0c0 dfbc 1d25 f0bd
000001e0: a5f6 29be da8b 2cbe 1ef2 123f 3819 27bd
000001f0: 6409 8bbe cc03 0ebe 8c38 23bf da61 113d
00000200: b415 8f3e ecc6 c03e 5523 863e ef53 243f
00000210: 7f6f 8fbd 65e1 383e b11b e1bd ef11 743e
00000220: 9738 f13b f62b 1d3e efef ae3e 9507 06be
00000230: 37d9 9c3c 6146 3e3f d869 283f 769b 4dbd
00000240: ec3e 653e fdaf 803e bc55 a03e 2363 6a3c
00000250: 7246 23bf 538b 42be 7056 9e3e 68ab 0a3f
00000260: 16e1 fcbc a254 3d3e 05bc c1bd fb49 c33e
00000270: d8f7 05be cc75 cc3d 0d81 dabe d680 933d
00000280: 5552 d53a 06de fabd 9bd1 ecbe 25ff e0bd
00000290: a638 043e 0a0f 803e 3f23 e9be 8fb0 dabd
000002a0: 21c7 0fbf 756e 193f 9b13 d8be 1e71 6b3d
000002b0: 67d5 c8bd 3394 763e 8f0b 1f3f 9f68 2f3f
000002c0: d5ad 0bbe c724 a63e af19 43be 6b6e e53d
000002d0: e7ef fd3e d888 093f cf1d b4be 7251 acbc
000002e0: 991e b7bb 6227 65be a825 2d3e a632 973d
000002f0: ee73 27bf 9d43 c6be 3395 0d3e 1a75 4abe
00000300: e234 14bf 3ca2 5bbd d8c7 2ebf 737a a1bd
00000310: f52f b4be c8ba c7be 7d42 313f 7a77 3c3e
00000320: b41c 113e 51f4 13bf 5391 833f 86d6 9cbe
00000330: 2d0b 23be b8ac 9ebe efb5 6a3e 6ec7 fb3d
00000340: 6367 49bd 025d 9dbd f559 863e 3471 b0bd
00000350: f842 26be ed55 aebc c439 73bd 9b26 c1be
00000360: 2c1f fa3e 3de0 1cbf 669a a43e df30 e63e
00000370: 7d7a e8bc 4869 393f 6bfd 8abe 0ba5 183f
00000380: 33ad ca3a e179 973d 879e 983d ad55 353f
00000390: b90e f6be 5d34 43be 3b2c c53c d18a 0b3f
000003a0: fdb6 953e 61f4 37bf 3b5e a63c 0d57 fdbe
000003b0: 7203 48be 92c4 193f 99e6 b7be 7e1b 3b3e
000003c0: 9338 283e 68ba 13be 51e5 be3e 2898 aebe
000003d0: d23a 3c3e cf46 f2be 0544 b2bd fd5d c7be
000003e0: a721 203f 3a11 c23d 7a3b 713f 464e 1dbd
000003f0: d0fc b13d 384e bf3e 369f e03e a755 59be
0.37705022 0.07712036 0.514984 0.15031007 -0.33208102 0.106262185 0.5577525 -0.22110486
0.3886582 -0.0693933 0.555239 0.0076130847 -0.3333689 0.31609052 0.05702648 -0.5158157
0.36451888 0.2881886 -0.051654927 0.22144762 0.5937657 -0.3946537 0.38802412 0.029325115
-0.1224484 -0.3335248 -0.4569247 -0.059653044 -0.12697959 0.33269376 -0.026327327 0.1344568
0.049186844 0.18631607 -0.3419536 -0.11325246 0.4220603 0.34406176 -0.43655804 0.35887522
-0.9064327 0.26435965 -0.35607183 1.0011046 0.06311781 -0.5505127 0.70028573 -0.25136372
0.03547597 -0.17423324 0.13001111 0.08763755 0.20126218 0.22818908 -0.2407251 -0.015171898
0.16989309 -0.10371276 -0.4642742 0.15763743 -0.011440068 0.16184533 -0.39519086 0.054830216
0.062667795 0.15450549 0.7596228 -0.08188361 -0.710512 0.20871198 -0.70820314 -0.3779294
0.09124521 0.031370237 -0.23066837 -0.5593906 0.05087141 -0.119651005 0.1797306 0.067903705
-0.12092211 -0.35105395 0.05548515 -0.23859403 -0.09859991 0.099525966 0.33851984 0.42028686
-0.32634744 -0.2540319 0.12843838 0.7153255 0.29719242 -0.14588992 0.5343182 -0.28183815
0.10351711 -0.41122073 -0.51109827 0.2649364 0.13481644 0.51369554 0.47289038 0.44530085
0.42882746 -0.18512829 0.19771372 0.023948679 -0.16593929 -0.24939501 -0.44829184 0.24923295
-0.09182644 -0.08176098 -0.13430043 -0.11773064 0.040390946 0.09296149 -0.02731359 -0.11725829
-0.16597994 -0.16850224 0.5740069 -0.040795535 -0.27155602 -0.13868636 -0.6375816 0.03549371
0.27946246 0.37651765 0.2619883 0.6419057 -0.07003688 0.18054731 -0.1099161 0.23834966
0.0073614824 0.15348801 0.3416743 -0.1308883 0.019146545 0.7432614 0.65786505 -0.050197087
0.22387284 0.25134268 0.3131541 0.014305863 -0.63779366 -0.1899846 0.30925322 0.54167795
-0.030869048 0.18489316 -0.0945969 0.3814238 -0.13082826 0.099834055 -0.42676583 0.07202308
0.0016275147 -0.12249379 -0.46253666 -0.10986165 0.12912235 0.25011474 -0.45534703 -0.10678207
-0.5616322 0.5993417 -0.42202458 0.057480924 -0.09806328 0.24079971 0.6212701 0.68519014
-0.1364053 0.32449934 -0.19052766 0.11202701 0.49597093 0.5372443 -0.35178992 -0.02103493
-0.0055883643 -0.22378305 0.16908896 0.07382707 -0.6541127 -0.3872346 0.13826446 -0.19771233
-0.5789319 -0.053621516 -0.6827369 -0.078846835 -0.35192838 -0.3900969 0.6924208 0.18404952
0.14171106 -0.5779467 1.0278724 -0.30632418 -0.15922232 -0.3099115 0.22920965 0.122938976
-0.049170863 -0.076837555 0.26240507 -0.08615342 -0.16236484 -0.021281207 -0.05938126 -0.37724766
0.48851907 -0.6127966 0.32149047 0.4495916 -0.02837872 0.7242627 -0.27146468 0.59626836
0.0015462994 0.073962934 0.07452112 0.70833856 -0.48058107 -0.19062944 0.024068942 0.5450869
0.2924117 -0.7185727 0.020308604 -0.49480477 -0.19532564 0.6006557 -0.3591812 0.18272206
0.16427831 -0.14426577 0.3728433 -0.3410046 0.18381813 -0.47319648 -0.0870438 -0.38938895
0.6255135 0.09475942 0.9423138 -0.038404725 0.08690798 0.37364364 0.43871468 -0.2122408

network_body._body_endoder.seq_layers.0.bias f4 [128]
00000000: 24c1 8bbd 68ad eb3c 46b9 7d3d 18ec 3fbc
00000010: 3ba8 0a3d fac3 b03d 255d 8dbd 9f66 c93a
00000020: a779 67bd 308f f3bc bbcb 08bd 939e 9a3d
00000030: fe1f 6fbc b46a 253d f226 acbd 619a 31bd
00000040: 3ebc 7cbd 83d5 4fbd 1b95 403c 7473 4c3a
00000050: f2aa 4eb8 db04 953d 94ab 21bd 4a91 543d
00000060: b605 1fbd 5e21 86bc 51f7 4f3d 6799 87bd
00000070: f5b9 573d d782 d3bc 7887 033e a01b a03c
00000080: 00ef 4b3c 12fa 3b3c 1694 6a3d 8808 303d
00000090: f808 833d 6fb8 f6bc abae e5bc 6d94 bb3d
000000a0: 8f3b bb3d 0162 053d 7a2b e6bb 40bd 5a3d
000000b0: 92e2 54bd c24e debc 5de7 ef39 dd4e f83c
000000c0: 9fea 933d 8bdc 013d 8666 9b3c 9f13 763c
000000d0: 20fa 713d 23a6 e63c 3c87 16bd 4d74 53bd
000000e0: e361 b73c 5164 bfbd fbf7 14bd 7c6b ba3d
000000f0: 45f6 e7bb 512f f03c ee7c 633d 949e d93c
00000100: 971a 313d 5e6a bebc 9f03 a13d 9baa 993b
00000110: 6e04 7dbd 9dac a23c 45ec fc3b 1091 a23d
00000120: bda0 443d 088b 9a3d 378d 7c3c 6bf1 dd3c
00000130: ad57 9cbc 6f8d 68bd a454 b33b 08be bf3c
00000140: 8b59 09bd 62cd cf3b 2070 e73d 3fe1 423d
00000150: 624d 8f3c 1cc0 15bd 764c d8bb 701d 073d
00000160: 322c c2bc 26a6 6a3d c62a bc3d 36e8 24bd
00000170: 3ab0 69bd 62b3 05be f629 a8bd a59e 933d
00000180: d7b3 b9bd 3121 97bd b743 a2bb 67b6 bd3c
00000190: 8182 1bbc 9bcd e23b 0787 29bd 9162 323d
000001a0: b1cd 923d 15c6 9a3c 7cd5 d6bc a655 be3c
000001b0: bef6 6d3d da71 083d 2803 923c 014b 22b9
000001c0: f158 dbbd 5363 fdbc 1d64 823d e4b6 733d
000001d0: 0d11 b6bb e055 303d 964a e6bc af75 a43b
000001e0: 67e7 0c3d c443 50bc fea9 41bd f11b 0c3d
000001f0: 5351 723c 483c 12bd 66ab d13b e065 83bd
-0.06823948 0.02876921 0.06194427 -0.011714004 0.033851843 0.086311296 -0.069025315 0.0015365666
-0.0565125 -0.029731363 -0.033397418 0.07549777 -0.01459503 0.040384963 -0.08405866 -0.043360118
-0.06170296 -0.05074073 0.0117542995 0.0007799186 -4.9273433e-05 0.07276317 -0.03947027 0.05189637
-0.038823806 -0.016373333 0.05077297 -0.06621056 0.052667577 -0.025819225 0.12844646 0.019544423
0.012447119 0.011473196 0.057270132 0.042976886 0.06398195 -0.030117242 -0.02803739 0.09159169
0.09142219 0.032564167 -0.007024226 0.05340314 -0.051973887 -0.027137164 0.0004575801 0.030311042
0.07222485 0.031704467 0.018969785 0.0150193265 0.05907643 0.028155392 -0.036750063 -0.051624585
0.022385543 -0.09345306 -0.036369305 0.09102532 -0.007078918 0.029319437 0.055539064 0.026564874
0.04323825 -0.02324408 0.07862019 0.004689527 -0.061771803 0.019857699 0.007718595 0.07937825
0.048004854 0.07546049 0.015414528 0.027092656 -0.019084776 -0.056775507 0.0054727364 0.023406044
-0.03353266 0.006341622 0.11300683 0.047578093 0.017492954 -0.036560163 -0.0066009117 0.03298706
-0.023702715 0.057287358 0.09187846 -0.040260516 -0.05705283 -0.1305671 -0.082111284 0.072079934
-0.09067505 -0.07379378 -0.00495192 0.023158265 -0.009491564 0.0069214827 -0.041388538 0.04355103
0.07168139 0.018893281 -0.026224844 0.0232342 0.05809664 0.033311702 0.01782377 -0.00015477465
-0.107103236 -0.03093115 0.06366751 0.05950059 -0.005556232 0.043050647 -0.028111737 0.005018912
0.03440037 -0.012711469 -0.047281258 0.034206335 0.014789897 -0.03570202 0.006398606 -0.064159155

network_body._body_endoder.seq_layers.2.weight f4 [128, 128]
00000000: 71d1 17bd d8bb 1b3e 75ee b93d 148a 7bbd
00000010: 9d0a 063e f15a c03d 0c5d 57bd 699b 9bbc
00000020: 5664 883d 013d 623c ae66 8e3d 341e 9b3d
00000030: 444d 11be 819c 48bd bf7a 17be 7e58 213d
00000040: 9a1c cabd bb95 943d 5182 55bd 2b21 b1bc
00000050: 3c41 00bd 0c4e b5bd 8525 ea3c 3acd a43c
00000060: 6d5f b63c 0a83 903d 527e 7d3d 2b65 873c
00000070: 0604 9ebd f313 123e 122e 05be 4903 d03d
00000080: aa7c 863d 0015 b1bc 9fb4 61bd 2ed8 273d
00000090: 36a1 c43c 1def 433d d502 303d 1d9b 60bb
000000a0: 6cd9 c1bb e48d 07bc 278b b13c fd41 26be
000000b0: ac82 883c 668a a73d 6028 283d 5c12 77bd
000000c0: 4406 0bbe 9095 2abd f36a 233e dc4b 763a
000000d0: 0a3a a53c f9c2 00be 4351 cb3b 68cf 49bd
000000e0: 139c b8bc bdb6 b4bd 4848 ca3c 2eb8 33bc
000000f0: 5481 043e 4169 663d f801 dc3d 4a3c 6b3d
00000100: 5b12 a1bd cbbe 8f3d a00a ce3d 8349 adbd
00000110: 0898 51bc 126c c6bd de12 89bd f418 1fbe
00000120: 61e2 efbd e4e0 8dbd ef8d 3cbd d35b ccbc
00000130: 9e3a 393d 4c19 8c3d f259 32be 81f6 27be
00000140: aec2 e0bd fdf2 26bd 8b08 0d3d ebac f6bc
00000150: b59c ac3d 57e2 6dbd 5bc3 a1bc 725f c5bd
00000160: 0432 503d 3a53 dabc 97e0 89bc 7ec3 b2bc
00000170: 0437 603c 8736 573e e499 dd3c a468 3abe
00000180: 6989 103e 44eb 1bbe 94e3 c03c b483 7e3d
00000190: 1b4b 313e fad8 1dbd 02c6 fa3d c6a5 3dbb
000001a0: ee2c 55be 1deb 993d 1c5d b53b 383d 3a3d
000001b0: a23e e6bb 1add 943d 6f75 3e3d 8409 ea3d
000001c0: 70f9 5a3e 4def 9a3d 580d c6bc 3d39 553d
000001d0: 42f8 c4bd cb19 06bd c059 9bbd 8b80 1f3d
000001e0: 94ba 23be 19ac 7ebd 6453 933b 59c6 a03d
000001f0: d257 42bd 3080 b43c 84d1 213d af0b f43d
00000200: 4bc2 c93c 93bb e5bc 9f18 2abd 8f77 7b3d
00000210: e6a0 41bd 9f2f 43bd 533a 50bd 1a3d 1ebe
00000220: 6ada b9bd 96b8 923d b352 9fbc de13 8bbd
00000230: c5eb 0abe d59a 8a3d a4c9 5839 4a4a 51bd
00000240: 2aac babd f4a9 1e3d 98c5 8fbc 0215 b53b
00000250: 6668 29bc 1736 8b3c f9a4 86bd 9b7b 78bd
00000260: 3aa2 2c3e a2b1 a4bd 3314 58be d55b cbbd
00000270: c5b4 403d ce7f 0abd b1cc 3a3d 595b c3bc
00000280: 1690 dcbc bf51 603d d781 5b3d 67f9 82bc
00000290: 6f84 df3c 75ad b8bd b6a5 643d 0ba6 ae3d
000002a0: e72f afbc d2e5 473e fd8e 2a3d 982f 9fbb
000002b0: 9a81 ef3d 79a9 8c3c 3647 a1bd b6bd 59bd
000002c0: 9693 253c 23a1 aebd cb9e 913b d840 a23d
000002d0: 2900 8d3a 5a98 cb3c d7c0 a03b ab6f 4abe
000002e0: d1a9 c1bc 1dfb 87bd 8d31 9fbd 3d9b 41bd
000002f0: 09cd d1bc de3a febc b757 8cbd de3f 22bd
00000300: c9f8 023e b4ed c83a 82f8 043e f9b8 ad3d
00000310: d6db 623d 964e 1e3c 7e08 7bbe beed efbd
00000320: 3bd2 613b 648f 373e 2296 4dbd 15fc aa3d
00000330: 27f8 a7bb 2b7e 883c 93e7 18bd 8ec1 6f3d
00000340: cad8 cb3c 9029 7bbc 2177 123d 51b3 8bbd
00000350: 1aca d7bc 4811 e1bc b0e5 dcbd e583 d5bd
00000360: 0988 0a3e 4f65 5dbd e6f7 883d 0de1 90bc
00000370: ae1f 023d 95f0 c4bd 4bd6 8cbd 23f3 14bd
00000380: e0a2 09bd 75d5 47bc 37ab 00be 5c2b 653d
00000390: 5d24 38bd 4e07 543d 381b 203c da98 533c
000003a0: ac2e ac3c 7313 1dbd c677 8ebd a92d ad3d
000003b0: 63a0 99bc 627a 2e3d 3435 8fbe d8d5 cb3d
000003c0: 9702 8e3d 2e98 88bd 9308 cb3c 0494 67bd
000003d0: 988c 48bd b699 99bc 8d55 103e 4d81 82be
000003e0: 6aa9 debd 8017 ee3d 48b3 d0bd 2808 94bb
000003f0: 7211 acbe 3144 08bd 1682 bebd 2879 21be
-0.037064973 0.15208375 0.09078685 -0.06141098 0.13089986 0.09392346 -0.05257897 -0.018995004
0.066597626 0.01380849 0.06953178 0.0757412 -0.14189631 -0.04897738 -0.14792918 0.039391033
-0.098687366 0.07255121 -0.052126233 -0.021622261 -0.031312212 -0.08852777 0.028582344 0.02011739
0.0222623 0.07056244 0.061888047 0.016527733 -0.07715611 0.14265423 -0.13005856 0.101568766
0.065667465 -0.021616459 -0.055103894 0.04097765 0.024002653 0.047835458 0.04297145 -0.0034272142
-0.0059158113 -0.008273575 0.021672798 -0.1623611 0.016663872 0.08180694 0.04105413 -0.060320243
-0.13576609 -0.04164654 0.15958767 0.0009395459 0.020169277 -0.12574376 0.0062047555 -0.049270064
-0.02253536 -0.08823917 0.02469267 -0.010969205 0.1293996 0.05625272 0.10742563 0.057430543
-0.07864829 0.07018813 0.1006062 -0.08461287 -0.012792595 -0.096885815 -0.06693052 -0.15536863
-0.117131 -0.0692766 -0.046033796 -0.024946129 0.045221917 0.068407625 -0.17417124 -0.16402628
-0.10974632 -0.040759075 0.034431975 -0.03011175 0.08428327 -0.058077183 -0.019746473 -0.096373454
0.05082895 -0.026651014 -0.016830726 -0.021821734 0.013684992 0.21016894 0.02705092 -0.1820398
0.14114918 -0.15226465 0.023546018 0.06213732 0.17313807 -0.038537003 0.12244798 -0.002893792
-0.2081792 0.075155474 0.005534781 0.04546854 -0.0070265094 0.07268734 0.046498712 0.11427596
0.21384215 0.07565174 -0.024176285 0.05205654 -0.09617664 -0.03273944 -0.07585478 0.038940948
-0.15989143 -0.062175844 0.004496025 0.07850332 -0.047447033 0.02203378 0.03950645 0.11916291
0.024628779 -0.028043544 -0.041527387 0.061393317 -0.047272585 -0.047652837 -0.050836872 -0.15452996
-0.09074862 0.07164113 -0.019448614 -0.06790899 -0.13566501 0.06767813 0.00020674482 -0.05109624
-0.09114869 0.0387363 -0.017550275 0.005526186 -0.010339832 0.016993565 -0.06574435 -0.060664754
0.1685876 -0.08041693 -0.21101455 -0.09929625 0.047047395 -0.03381329 0.045605365 -0.023847269
-0.026924174 0.05476546 0.05359062 -0.015988065 0.027284829 -0.09017459 0.055822097 0.08527764
-0.021385146 0.19521263 0.04164027 -0.0048579685 0.116946414 0.017170655 -0.078749105 -0.053159438
0.010105988 -0.08526828 0.0044439784 0.07922524 0.0010757494 0.02485292 0.004905801 -0.1976916
-0.023640545 -0.06639693 -0.07773123 -0.047267187 -0.025610464 -0.03103393 -0.06852668 -0.03961169
0.12790217 0.001532963 0.12985423 0.08482546 0.055385433 0.009662291 -0.24514958 -0.117152676
0.0034457583 0.17925793 -0.050192006 0.08348862 -0.0051260176 0.016661724 -0.03733022 0.058534198
0.024883647 -0.0153297335 0.03575814 -0.06821311 -0.026341487 -0.02747406 -0.10785997 -0.104255475
0.13528456 -0.054051694 0.06687908 -0.017685438 0.031768493 -0.096162 -0.06876811 -0.036364686
-0.033602595 -0.012196888 -0.12565313 0.055949554 -0.044956554 0.05176478 0.009772114 0.012914861
0.021018349 -0.038348626 -0.06956439 0.084559746 -0.018753236 0.042597182 -0.27970278 0.09952897
0.06934088 -0.06669651 0.024784362 -0.056537643 -0.048962206 -0.018750053 0.14095135 -0.25489274
-0.10872157 0.11625576 -0.10190445 -0.004517574 -0.3360706 -0.033268157 -0.09302156 -0.15768874

network_body._body_endoder.seq_layers.2.bias f4 [128]
00000000: 2bc2 d3bc e89b d4bc f7d5 39bd 21b5 8cba
00000010: 3113 573d c671 83bd 2144 f73c 47b4 1e3d
00000020: 1321 fe3c 1ff1 db3c 1998 b13c 6fe6 0e3c
00000030: 6d2b aebb 2a51 13bc cbba 303c cf09 043c
00000040: b41d d63c 7400 ae3c 4232 763d 9c5a 68bd
00000050: b063 913d 60f8 a9bb b98f cb3d b2e4 893c
00000060: d6f4 843d 56d8 e9ba 829c 4cbd a3e7 973d
00000070: 8d7f 58bb d02d 803d 07e7 ecbc ad4d 58bd
00000080: 5fb4 7bbc 5d7c 013d 6d67 1bbd b5f2 283d
00000090: e76c cb3b 72f8 ec3b 958c 18bd 177f 1e3c
000000a0: 1dcd 943c f65c 673d 5346 9c3d 01e3 433c
000000b0: f451 f73b 2298 103d 9d52 0dbd d113 fcbb
000000c0: ad8d 553d d519 983d 951f 8e3d 9ccd 8c3d
000000d0: 3148 a73c 9b94 673d 03a8 05bd d8c7 65bd
000000e0: c6a0 9a3d e00d d33c ee4e 943b 0177 8d3c
000000f0: fe79 13b9 b6ed 943b d96e a13c 1c68 053d
00000100: eab5 b93c 169f 783d ad82 073d fe52 25bd
00000110: a45b 03bc 2da7 283b bb4c b83b fecc be3a
00000120: e440 7bbc 68d3 2b3d c221 b2bc a848 e73b
00000130: 7b4c 983d 2438 0bbc 5956 1e3d 190d 5e3d
00000140: 27c8 0a3d 729a 10bd c01f 53bd 7052 b43c
00000150: 56c9 90bb 959c 45bd 241e 50bc 8c77 1bbd
00000160: b2a2 b4bc ceec 8e3b 322f 59bb 93ab 1fbd
00000170: 9f18 bb3d 7e47 263d 8ca2 ed3c fbcc 8d3d
00000180: 708d f43b 9955 333c 2b48 c63d f267 bc3c
00000190: b268 533d 650b bebc 0f15 c03c fd24 78bb
000001a0: 1c31 763c ad4a 083b 6b8d 0b3d d680 60bd
000001b0: 073c bc3d cb15 613c af9d 1c3c 640e 43bd
000001c0: f952 9c3c 06aa 423d 4f1d ea3c 1787 123d
000001d0: da6c babc 6a9d 813b 99a5 31bd 01ff 413c
000001e0: 7fd3 663c 2da5 593c cf9a 80bb 9714 853b
000001f0: a119 65bd 331f ec3c d418 803c 029a e63c
-0.025849422 -0.025953248 -0.04537007 -0.0010735133 0.052508537 -0.06418185 0.030183854 0.038746145
0.03102163 0.026848374 0.021678971 0.008721932 -0.0053152354 -0.008991519 0.010786722 0.008058979
0.02613721 0.02124045 0.060106523 -0.056727037 0.07099092 -0.0051870793 0.09939522 0.016832683
0.06492011 -0.0017840962 -0.049953945 0.07417228 -0.003303501 0.06258738 -0.028918756 -0.052808452
-0.015362828 0.031612743 -0.03794043 0.04124709 0.0062080505 0.0072317654 -0.037243444 0.009673855
0.018164212 0.05648514 0.07630601 0.011955977 0.0075476114 0.035301335 -0.034502614 -0.007692792
0.052137066 0.07426802 0.069396175 0.068751544 0.020420166 0.056538206 -0.03263093 -0.05609879
0.07550196 0.025763452 0.0045260107 0.01726866 -0.00014064458 0.004544939 0.019706177 0.03256999
0.022669751 0.06069859 0.033083607 -0.04036235 -0.008017454 0.002573441 0.0056243814 0.0014556942
-0.015335295 0.04194966 -0.021744613 0.007058222 0.074364625 -0.008497272 0.038656566 0.05421171
0.033882286 -0.03530354 -0.05154395 0.022011966 -0.0044185324 -0.04824503 -0.012702499 -0.037955806
-0.022050235 0.0043617254 -0.0033139703 -0.038981985 0.091355555 0.040595524 0.029008172 0.069238625
0.0074631497 0.010945701 0.09681734 0.022998784 0.051613517 -0.023198793 0.023447542 -0.0037863844
0.015026357 0.0020796463 0.034070414 -0.054810368 0.09191137 0.013738106 0.009559079 -0.047621146
0.019082533 0.04752543 0.028578429 0.035773363 -0.022756983 0.003955533 -0.043370817 0.011840583
0.014088511 0.01328401 -0.0039247046 0.0040612924 -0.055932645 0.02882347 0.015636839 0.028149609

action_model._continuous_distribution.log_sigma f4 [1, 2]
00000000: feb1 35be 5f24 0ebe
-0.1774368 -0.13881062

action_model._continuous_distribution.mu.weight f4 [2, 128]
00000000: 4a20 bb3c 51ad daba 31dc a83b 5860 633c
00000010: 8a5a 463d 04a5 cb3c 1938 12bd 1d5e 48bd
00000020: 72ff ccbb 1cfd 98bc e541 3fbd 6927 69bd
00000030: 30be d33b dd48 14bc 29e9 0e3d 7bea db3b
00000040: 6a57 433d 1305 aebc 7889 813d a15f 41bc
00000050: 00bb 51bd 6b93 053c 65a2 4cbd bf17 3bbd
00000060: 1d99 b43b 8fbe 423b 91ce 0aba fbe5 453d
00000070: 6880 66bd 1e5d c23d 67d8 2dbc 7a47 57bc
00000080: a008 cfbb 9718 b3bc 7081 edbb 80f6 863d
00000090: 83bb 37bd 81fb 2b3d 7444 513c 46c8 6a3d
000000a0: cb1c c13c 2bb5 39bd 0cf7 a4bd 3765 693d
000000b0: 7eb5 23bd ef3b a7bc 60fb 10bb cd09 6d3c
000000c0: 2b2b 743d eeaf 853d 5b24 c9bc fe93 003e
000000d0: f8a5 c93a 519e c23c 00cc d8b9 f6d3 593c
000000e0: f7dd 2f3b 5d4a e33c cd2f 923c 2dfb 0cbd
000000f0: cc64 06bd fe1d 273c ac2b 8fbd 680a 033d
00000100: 7e44 ff3c 9203 8dbd 1f2d 2a3d 10ab 1d3c
00000110: ac00 83bc 7ad2 bfbc 3168 40bc 22e5 36bd
00000120: 4e52 3bbc ceb5 93bd f859 d03b d0a4 85bc
00000130: 0124 84bd 9336 48bc e476 7f3d 2296 663b
00000140: 10ca 46bc e23b 22bc 71de e9bc 5609 263d
00000150: 01e3 f6bc 40a5 d3bc a5da 07bc 87bc 67bc
00000160: 84ce 3cbc 4a94 303d de45 0b3d b7cd 13bd
00000170: d0b1 51bd 9e66 7cbd 4205 403d 781e cbbc
00000180: cf3e 12bd 9976 9039 6176 663c ec17 2f3d
00000190: ec73 80bd 90ee 26bd aa86 a5bd 3552 8ebc
000001a0: 31fa f83c 8bf9 95bd f818 8a3d 5cb9 9bbb
000001b0: 5748 f3bd 9674 333d e2ba 89bd 870f 383c
000001c0: d582 71ba 26cb b03c 905d fe3c ead1 663d
000001d0: bfe7 5c3c 20f4 023c 1ea9 433c 7703 893d
000001e0: 8a28 e0bc 47db 23bc c41d 9ebc eb01 59bd
000001f0: efd0 fc3a d887 bdbc ab3d 42bd 22cf 4cbd
00000200: 8d2b 8dbc a412 873c 4a08 653c ab77 75bd
00000210: 5d5c 8f3d 79f2 81bc ac91 c3bd fbb6 6f3d
00000220: b559 2f3d 55fb adbd 3866 d0bc 019c 953c
00000230: 7fd2 07bd 518b 973c ff5c 763b 790b 5a3d
00000240: bc2f 4d3c 8b58 bdbd 4b43 5b3d e327 ffbc
00000250: 81fb 933d 330a bfbb 7f6f 9b3d 13d4 e23c
00000260: 0efd f6bd e034 5fbd b801 6c3c 0b92 f33d
00000270: 982a c33c 1568 5ebd 0d6c 0c3d 8a89 0bbc
00000280: caf4 8ebd 4ef7 393d ed5a 80bb 464d bf3c
00000290: 0e7a 753c 41fd adba 8612 10bd 0a56 183c
000002a0: eb6a 2dbd faa8 d3bd ef92 36bd 4b0c 3cbd
000002b0: c05a 04bd 5a5d d0bd 4787 2ebc 6ca5 c53c
000002c0: 18b0 093d af8f 2b3d 04c7 04be 15bc 45bd
000002d0: 48f8 753d 88b9 e8bd 95d4 e5bc a682 9e3b
000002e0: 855b c03d 770c 5abd 9cd9 85bd fff0 cc3c
000002f0: fe47 0bbd 2929 193d 89e2 2c3d 880b a93c
00000300: 9e86 7cbd b5b0 883d 22bf 56bd bcdd 92bc
00000310: 132d e63b d778 193d 62a2 93bd 079d 0a3d
00000320: b383 9f3c 7d8d 5d3d d930 90bc 4a20 803c
00000330: 4608 853d 68a4 993c 68a1 073d 5828 9c3d
00000340: 4f32 823d a28b 22bc e2dc 3bbd f210 163b
00000350: 0b34 2dbc ab78 913c b855 093d b25b 9d3c
00000360: f8d1 38bd 8a74 3ebd be39 1a3c 8376 1fbc
00000370: 34a3 663d 722c 123d b173 b139 3152 973d
00000380: b72f 25bc 852b 13bd 7ac4 a33d 4f54 9b3c
00000390: 5388 b6bb e72f ecbb 4abb 7fbd 80f1 883c
000003a0: 53b9 73bd 6aad b73c d4ee 5c3c f425 153b
000003b0: dcb0 18bd 0cd3 77bc 81bc 56bd fe88 24bd
000003c0: 0a46 123d 67c0 af3d ad78 18bd ed8c 9d3b
000003d0: c6d2 06bd 4312 fe3c ad2b 07bc 152e e1ba
000003e0: 4a38 69bd 82d6 6dbd ea17 8e3c 1ca7 e23c
000003f0: d89e e1bb fbf1 bdbd edfe 853d 43db 44bd
0.022842545 -0.0016683732 0.005153202 0.013877951 0.04842619 0.024858959 -0.03569803 -0.04891788
-0.0062560374 -0.01867538 -0.0466937 -0.05692235 0.006461881 -0.009050575 0.034890328 0.006711302
0.047690786 -0.021242654 0.06325048 -0.011802585 -0.051203728 0.008152823 -0.04995956 -0.045676943
0.0055114166 0.0029715633 -0.0005295063 0.04831503 -0.0562748 0.09490417 -0.010610676 -0.0131396
-0.006318167 -0.021862311 -0.007248096 0.06589985 -0.04485656 0.0419879 0.012772668 0.057319902
0.0235733 -0.04533879 -0.08054933 0.05698129 -0.039968006 -0.02041432 -0.0022122487 0.014467669
0.05961148 0.065276965 -0.024553468 0.12556455 0.0015384546 0.023757132 -0.00041350722 0.013295164
0.0026835182 0.02774542 0.017845059 -0.034419227 -0.03281097 0.010200022 -0.069907516 0.031992346
0.03116059 -0.068854466 0.041546937 0.009623304 -0.015991531 -0.023415793 -0.011743591 -0.04465211
-0.011433197 -0.07212411 0.0063583814 -0.01631394 -0.0645218 -0.012220043 0.062369242 0.00351847
-0.012133136 -0.0099019725 -0.028548451 0.040536247 -0.03013754 -0.025835633 -0.008291875 -0.0141440695
-0.011523847 0.04311017 0.034002177 -0.036084857 -0.051194966 -0.0616213 0.046880014 -0.024794802
-0.03570443 0.00027554182 0.01406631 0.042747423 -0.0627211 -0.040754855 -0.08082326 -0.017373184
0.030392738 -0.07322987 0.06743044 -0.004752321 -0.11879032 0.043812357 -0.06725098 0.011234171
-0.0009212916 0.021581244 0.031050473 0.056352533 0.013482987 0.007992774 0.011942176 0.06690114
-0.02736308 -0.01000101 -0.019301303 -0.052980345 0.0019288341 -0.023136064 -0.047422092 -0.050002225
-0.01723268 0.01648838 0.013979027 -0.059928577 0.07000039 -0.01586269 -0.09549269 0.058524113
0.04281016 -0.084952034 -0.025439367 0.018262865 -0.03315973 0.018499048 0.003759205 0.053233597
0.012523588 -0.09245404 0.053530972 -0.03114695 0.07225705 -0.0058300733 0.075896256 0.027689015
-0.12059985 -0.054493785 0.014404707 0.1189309 0.023824021 -0.05429848 0.034282733 -0.008516679
-0.069802836 0.045401864 -0.003917089 0.023352277 0.014982713 -0.0013274328 -0.035173915 0.009297857
-0.042338293 -0.10334964 -0.04457372 -0.04591016 -0.03231311 -0.101740554 -0.01065237 0.02412673
0.0336152 0.041885074 -0.12966543 -0.048275072 0.060051233 -0.11363512 -0.028055469 0.004837352
0.09392456 -0.053234544 -0.06535646 0.02501726 -0.034004204 0.03739277 0.04220823 0.020635381
-0.06165182 0.06674329 -0.052428372 -0.017927997 0.0070244162 0.037468757 -0.072087064 0.03384116
0.019471979 0.054090012 -0.017601417 0.015640397 0.06495719 0.018755153 0.033112913 0.076248825
0.06357252 -0.009920986 -0.045864947 0.0022898284 -0.01057149 0.017757734 0.033529013 0.019208763
-0.045122117 -0.04649786 0.009413181 -0.009732845 0.056307986 0.035686918 0.00033846268 0.07388724
-0.010082177 -0.035930175 0.07996459 0.0189611 -0.0055704503 -0.007207859 -0.062434472 0.016716719
-0.05950291 0.022421557 0.013484675 0.0022758218 -0.03727804 -0.015126001 -0.052425865 -0.04016971
0.035711326 0.0858162 -0.03722446 0.0048080594 -0.032915853 0.031014567 -0.008250159 -0.0017179871
-0.056938447 -0.0580659 0.017345387 0.027667575 -0.0068853907 -0.0927467 0.06542764 -0.048060667

action_model._continuous_distribution.mu.bias f4 [2]
00000000: 4800 253c 4780 b33c
0.010070868 0.021911753

action_model._discrete_distribution.branches.0.weight f4 [1, 128]
00000000: c1ca 803c 7b79 d63b d479 33bc 456d 883c
00000010: c8f6 dbbb d887 1c3c 7fd2 ecbb 2768 2e3c
00000020: 78ff 55bb 9137 8437 5f13 523a 074e b9ba
00000030: 645f 82ba 5538 2ebc 84ca be3b bb48 873a
00000040: fd2f 333c d43a 41bc 6725 7ebb cf3e 073b
00000050: 2758 2abc 3e88 0f3c 97d7 d43b fa85 593c
00000060: 209b 6ebb af89 f43b d354 0cbb 0028 b1bb
00000070: 81d3 0a35 d2ba 483c ebb0 013c b67d b6bb
00000080: 52d1 b93b 4f55 be3b d242 1c3c 2367 adbb
00000090: 5228 583b 1fb7 853b df8c 863c 4562 813b
000000a0: cb28 a53b b39b f63b f927 173c 1425 0cbc
000000b0: 6c0f 98bb bb71 67bc e8b9 663a 3fab 9abc
000000c0: d2aa 34ba 4ac1 543a aba2 683c 4a49 b4bb
000000d0: e399 093c d49d 29ba 125f 69bb aaf1 7a3b
000000e0: e744 32bc 233e 27bc 1e1d 193c b20f 773b
000000f0: b852 81bb 505d daba 34a5 343b f6ca 1e3b
00000100: 82b8 a8bb a60b 43ba 2854 cd3a 833d e1bb
00000110: 8ba6 e33b 33c3 993c cfbe 8d3b cb13 03ba
00000120: 68aa 7b3b 3ab6 febb 27f3 a33b add9 db3a
00000130: 35eb 633a 3fee fa3b f57b b23b 908f 8ebb
00000140: df14 a43b 2aa1 d3bb 722c 1ebb 8e71 0d3c
00000150: d72e 02bc 25c4 5abc a838 6ebb 4bd7 3ebb
00000160: b66f cbbb 5d83 c9bb 0474 2cbc 1bd5 8bbb
00000170: 154d 79b9 d0e5 e93c b9a2 4b3c 6730 88ba
00000180: 0204 7abc 1804 603b c231 4c3b ad77 e93b
00000190: bb8f 943b 8b65 e43b 05bc aa3c bb90 25bc
000001a0: b70d ba3b 8339 4f3b 7d40 1a3b 4d69 35bb
000001b0: f7b5 61ba 7f05 ea3b e225 4fbb e060 713b
000001c0: 4838 dcbb eabd 88ba 0f88 8f3a 83b8 3c3c
000001d0: c3c9 463b 4b48 273b 2b0e eb3c a120 09bc
000001e0: 5f38 e43b 9a16 d4bb 7bcb 7e3b 0c72 97bc
000001f0: 1a6f 3dbc ad52 adbc 88e2 43bc 5e71 8cbb
0.01572168 0.0065452433 -0.010954339 0.016653666 -0.006712768 0.009553872 -0.0072272415 0.010644949
-0.0032653492 1.5761501e-05 0.0008013751 -0.0014137634 -0.0009946642 -0.010633548 0.0058224816 0.0010321358
0.010936734 -0.011793811 -0.0038779618 0.0020636802 -0.010396994 0.00876051 0.006495427 0.013276571
-0.003640838 0.007462702 -0.0021412864 -0.0054063797 5.1716785e-07 0.012251573 0.007915716 -0.005569185
0.005670705 0.0058085094 0.009537416 -0.005291836 0.0032983017 0.0040806676 0.016424594 0.003948482
0.0050402633 0.007525885 0.009225839 -0.008553762 -0.0046405103 -0.014126237 0.0008801506 -0.018880485
-0.0006891909 0.00081159605 0.014198939 -0.005501901 0.008398506 -0.00064703566 -0.0035609645 0.0038291016
-0.010880685 -0.010207686 0.009345321 0.0037698564 -0.0039466284 -0.0016659889 0.002756429 0.002422986
-0.005148948 -0.00074403954 0.0015665339 -0.006873788 0.0069473437 0.018769836 0.0043257247 -0.0005000203
0.003840113 -0.007773188 0.0050033513 0.0016773246 0.00086944114 0.0076577957 0.0054469057 -0.00435061
0.005007371 -0.0064584212 -0.0024135378 0.008633031 -0.007945738 -0.013352429 -0.0036349688 -0.0029120024
-0.0062083853 -0.006149693 -0.010525707 -0.0042673475 -0.00023775206 0.028551966 0.012428933 -0.0010390402
-0.015259745 0.0034182128 0.0031157588 0.007124862 0.0045337356 0.0069701127 0.020841608 -0.010105307
0.0056779045 0.0031619973 0.0023536973 -0.0027681172 -0.0008610184 0.0071417685 -0.0031608273 0.0036831424
-0.0067205764 -0.0010432575 0.0010950583 0.0115186 0.0030332662 0.0025525268 0.02869328 -0.008369596
0.006964728 -0.006472421 0.0038878608 -0.018486999 -0.011562133 -0.021157587 -0.011955865 -0.0042859754
